…
    save_checkpoint_freq: 5000.0
  ]
  is_train: True
  dist: False

22-10-27 20:15:52.475 - INFO: Dataset [GTDataset - DIV2K] is created.
22-10-27 20:15:52.476 - INFO: Number of train images: 800, iters: 100
22-10-27 20:15:52.476 - INFO: Total epochs needed: 3000 for iters 300,000
22-10-27 20:15:52.477 - INFO: Dataset [GTDataset - Set5] is created.
22-10-27 20:15:52.477 - INFO: Number of val images in [Set5]: 100
22-10-27 20:15:52.584 - INFO: Network G structure: DataParallel - MANet_s1, with parameters: 1,810,361
22-10-27 20:15:52.584 - INFO: MANet_s1(
  (kernel_estimation): MANet(
    (m_head): Conv2d(3, 128, kernel_size=(3, 3), stride=(1, 1), padding=(1, 1))
    (m_down1): Sequential(
      (0): MABlock(
        (res): Sequential(
          (0): MAConv(
            (fc0): Sequential(
              (0): Conv2d(64, 32, kernel_size=(1, 1), stride=(1, 1))
              (1): ReLU(inplace=True)
              (2): Conv2d(32, 128, kernel_size=(1, 1), stride=(1, 1))
            )
            (conv0): Conv2d(64, 64, kernel_size=(3, 3), stride=(1, 1), padding=(1, 1))
            (fc1): Sequential(
              (0): Conv2d(64, 32, kernel_size=(1, 1), stride=(1, 1))
              (1): ReLU(inplace=True)
              (2): Conv2d(32, 128, kernel_size=(1, 1), stride=(1, 1))
            )
            (conv1): Conv2d(64, 64, kernel_size=(3, 3), stride=(1, 1), padding=(1, 1))
          )
          (1): ReLU(inplace=True)
          (2): MAConv(
            (fc0): Sequential(
              (0): Conv2d(64, 32, kernel_size=(1, 1), stride=(1, 1))
              (1): ReLU(inplace=True)
              (2): Conv2d(32, 128, kernel_size=(1, 1), stride=(1, 1))
            )
            (conv0): Conv2d(64, 64, kernel_size=(3, 3), stride=(1, 1), padding=(1, 1))
            (fc1): Sequential(
              (0): Conv2d(64, 32, kernel_size=(1, 1), stride=(1, 1))
              (1): ReLU(inplace=True)
              (2): Conv2d(32, 128, kernel_size=(1, 1), stride=(1, 1))
            )
            (conv1): Conv2d(64, 64, kernel_size=(3, 3), stride=(1, 1), padding=(1, 1))
          )
        )
      )
      (1): Conv2d(128, 256, kernel_size=(2, 2), stride=(2, 2))
    )
    (m_body): MABlock(
      (res): Sequential(
        (0): MAConv(
          (fc0): Sequential(
            (0): Conv2d(128, 64, kernel_size=(1, 1), stride=(1, 1))
            (1): ReLU(inplace=True)
            (2): Conv2d(64, 256, kernel_size=(1, 1), stride=(1, 1))
          )
          (conv0): Conv2d(128, 128, kernel_size=(3, 3), stride=(1, 1), padding=(1, 1))
          (fc1): Sequential(
            (0): Conv2d(128, 64, kernel_size=(1, 1), stride=(1, 1))
            (1): ReLU(inplace=True)
            (2): Conv2d(64, 256, kernel_size=(1, 1), stride=(1, 1))
          )
          (conv1): Conv2d(128, 128, kernel_size=(3, 3), stride=(1, 1), padding=(1, 1))
        )
        (1): ReLU(inplace=True)
        (2): MAConv(
          (fc0): Sequential(
            (0): Conv2d(128, 64, kernel_size=(1, 1), stride=(1, 1))
            (1): ReLU(inplace=True)
            (2): Conv2d(64, 256, kernel_size=(1, 1), stride=(1, 1))
          )
          (conv0): Conv2d(128, 128, kernel_size=(3, 3), stride=(1, 1), padding=(1, 1))
          (fc1): Sequential(
            (0): Conv2d(128, 64, kernel_size=(1, 1), stride=(1, 1))
            (1): ReLU(inplace=True)
            (2): Conv2d(64, 256, kernel_size=(1, 1), stride=(1, 1))
          )
          (conv1): Conv2d(128, 128, kernel_size=(3, 3), stride=(1, 1), padding=(1, 1))
        )
      )
    )
    (m_up1): Sequential(
      (0): ConvTranspose2d(256, 128, kernel_size=(2, 2), stride=(2, 2))
      (1): MABlock(
        (res): Sequential(
          (0): MAConv(
            (fc0): Sequential(
              (0): Conv2d(64, 32, kernel_size=(1, 1), stride=(1, 1))
              (1): ReLU(inplace=True)
              (2): Conv2d(32, 128, kernel_size=(1, 1), stride=(1, 1))
            )
            (conv0): Conv2d(64, 64, kernel_size=(3, 3), stride=(1, 1), padding=(1, 1))
            (fc1): Sequential(
              (0): Conv2d(64, 32, kernel_size=(1, 1), stride=(1, 1))
              (1): ReLU(inplace=True)
              (2): Conv2d(32, 128, kernel_size=(1, 1), stride=(1, 1))
            )
            (conv1): Conv2d(64, 64, kernel_size=(3, 3), stride=(1, 1), padding=(1, 1))
          )
          (1): ReLU(inplace=True)
          (2): MAConv(
            (fc0): Sequential(
              (0): Conv2d(64, 32, kernel_size=(1, 1), stride=(1, 1))
              (1): ReLU(inplace=True)
              (2): Conv2d(32, 128, kernel_size=(1, 1), stride=(1, 1))
            )
            (conv0): Conv2d(64, 64, kernel_size=(3, 3), stride=(1, 1), padding=(1, 1))
            (fc1): Sequential(
              (0): Conv2d(64, 32, kernel_size=(1, 1), stride=(1, 1))
              (1): ReLU(inplace=True)
              (2): Conv2d(32, 128, kernel_size=(1, 1), stride=(1, 1))
            )
            (conv1): Conv2d(64, 64, kernel_size=(3, 3), stride=(1, 1), padding=(1, 1))
          )
        )
      )
    )
    (m_tail): Conv2d(128, 441, kernel_size=(3, 3), stride=(1, 1), padding=(1, 1))
    (softmax): Softmax(dim=1)
  )
)
22-10-27 20:15:52.600 - INFO: Model [B_Model] is created.
22-10-27 20:15:52.600 - INFO: Start training from epoch: 0, iter: 0
22-10-27 20:16:35.372 - INFO: # 001_MANet_aniso_x4_DIV2K_40_stage1, Validation # PSNR_Y: 20.2121,  LR_PSNR_Y: inf,  PSNR_K: 42.0997
22-10-27 20:16:35.372 - INFO: 14945@HainuoWang, GPU [0]
…
